…
tuner/round: 0
Score: 0.2802916169166565


Best Model Summary:
Model: "model"
__________________________________________________________________________________________________
Layer (type)                    Output Shape         Param #     Connected to                     
==================================================================================================
main_input (InputLayer)         [(None, 10, 720)]    0                                            
__________________________________________________________________________________________________
transformer-MultiHeadSelfAttent (None, 10, 720)      33212880    main_input[0][0]                 
                                                                 main_input[0][0]                 
__________________________________________________________________________________________________
transformer-MultiHeadSelfAttent (None, 10, 720)      0           main_input[0][0]                 
                                                                 transformer-MultiHeadSelfAttentio
__________________________________________________________________________________________________
transformer-MultiHeadSelfAttent (None, 10, 720)      1440        transformer-MultiHeadSelfAttentio
__________________________________________________________________________________________________
transformer-FeedForward (Dense) (None, 10, 720)      519120      main_input[0][0]                 
__________________________________________________________________________________________________
transformer-FeedForward-Add (Ad (None, 10, 720)      0           transformer-MultiHeadSelfAttentio
                                                                 transformer-FeedForward[0][0]    
__________________________________________________________________________________________________
transformer-FeedForward-Norm (L (None, 10, 720)      1440        transformer-FeedForward-Add[0][0]
__________________________________________________________________________________________________
dense_1 (Dense)                 (None, 10, 736)      530656      transformer-FeedForward-Norm[0][0
__________________________________________________________________________________________________
dense_2 (Dense)                 (None, 10, 608)      448096      dense_1[0][0]                    
__________________________________________________________________________________________________
dense_3 (Dense)                 (None, 10, 288)      175392      dense_2[0][0]                    
__________________________________________________________________________________________________
fourth_neuron (Dense)           (None, 10, 1)        289         dense_3[0][0]                    
__________________________________________________________________________________________________
flatten (Flatten)               (None, 10)           0           fourth_neuron[0][0]              
__________________________________________________________________________________________________
predictions (Dense)             (None, 1)            11          flatten[0][0]                    
==================================================================================================
Total params: 34,889,324
Trainable params: 34,889,324
Non-trainable params: 0
__________________________________________________________________________________________________



